…
==========================================================================================
Layer (type:depth-idx)                   Output Shape              Param #
==========================================================================================
DVS128GestureSNNModule                   --                        --
├─Identity: 1-1                          --                        --
├─Identity: 1-2                          --                        --
├─CrossEntropyLoss: 1-3                  --                        --
├─SequentialState: 1-4                   --                        --
│    └─AvgPool2d: 2-1                    [1, 1, 32, 32]            --
│    └─Dropout: 2-2                      [1, 1, 32, 32]            --
│    └─Conv2d: 2-3                       [1, 32, 32, 32]           320
│    └─LIFCell: 2-4                      [1, 32, 32, 32]           --
│    └─AvgPool2d: 2-5                    [1, 32, 16, 16]           --
│    └─Dropout: 2-6                      [1, 32, 16, 16]           --
│    └─Conv2d: 2-7                       [1, 32, 16, 16]           9,248
│    └─LIFCell: 2-8                      [1, 32, 16, 16]           --
│    └─AvgPool2d: 2-9                    [1, 32, 8, 8]             --
│    └─Dropout: 2-10                     [1, 32, 8, 8]             --
│    └─Flatten: 2-11                     [1, 2048]                 --
│    └─Linear: 2-12                      [1, 500]                  1,024,500
│    └─ReLU: 2-13                        [1, 500]                  --
│    └─Linear: 2-14                      [1, 11]                   5,511
│    └─LICell: 2-15                      [1, 11]                   --
==========================================================================================
Total params: 1,039,579
Trainable params: 1,039,579
Non-trainable params: 0
Total mult-adds (M): 3.73
==========================================================================================
Input size (MB): 0.13
Forward/backward pass size (MB): 0.33
Params size (MB): 4.16
Estimated Total Size (MB): 4.62
==========================================================================================
…
