…
Layer (type:depth-idx)                                       Output Shape              Param #
==============================================================================================================
SemanticSegmentation                                         --                        --
├─FPN: 1                                                     --                        --
│    └─FPNDecoder: 2                                         --                        --
│    │    └─ModuleList: 3-1                                  --                        1,623,808
├─FPN: 1-1                                                   [32, 101, 256, 256]       --
│    └─MobileNetV3Encoder: 2-1                               [32, 3, 256, 256]         --
│    └─FPNDecoder: 2-2                                       [32, 128, 64, 64]         --
│    │    └─Conv2d: 3-2                                      [32, 256, 8, 8]           246,016
│    │    └─FPNBlock: 3-3                                    [32, 256, 16, 16]         28,928
│    │    └─FPNBlock: 3-4                                    [32, 256, 32, 32]         10,496
│    │    └─FPNBlock: 3-5                                    [32, 256, 64, 64]         6,400
│    │    └─ModuleList: 3-6                                  --                        (recursive)
│    │    └─MergeBlock: 3-7                                  [32, 128, 64, 64]         --
│    │    └─Dropout2d: 3-8                                   [32, 128, 64, 64]         --
│    └─SegmentationHead: 2-3                                 [32, 101, 256, 256]       --
│    │    └─Conv2d: 3-9                                      [32, 101, 64, 64]         13,029
│    │    └─UpsamplingBilinear2d: 3-10                       [32, 101, 256, 256]       --
│    │    └─Activation: 3-11                                 [32, 101, 256, 256]       --
├─MobileNetV3Encoder: 1-2                                    --                        (recursive)
│    └─MobileNetV3Features: 2-4                              --                        --
│    │    └─Conv2dSame: 3-12                                 --                        (recursive)
│    │    └─BatchNorm2d: 3-13                                --                        (recursive)
│    │    └─Hardswish: 3-14                                  --                        --
…
