…
ImageClassifier                          --                        --
├─ModuleDict: 1-1                        --                        --
│    └─Accuracy: 2-1                     --                        --
├─ModuleDict: 1-2                        --                        --
│    └─Accuracy: 2-2                     --                        --
├─ModuleDict: 1-3                        --                        --
│    └─Accuracy: 2-3                     --                        --
├─DefaultAdapter: 1-4                    --                        --
│    └─Sequential: 2-4                   [32, 512, 6, 6]           --
│    │    └─Conv2d: 3-1                  [32, 64, 196, 196]        1,792
│    │    └─ReLU: 3-2                    [32, 64, 196, 196]        --
│    │    └─MaxPool2d: 3-3               [32, 64, 98, 98]          --
│    │    └─Conv2d: 3-4                  [32, 128, 98, 98]         73,856
│    │    └─ReLU: 3-5                    [32, 128, 98, 98]         --
│    │    └─MaxPool2d: 3-6               [32, 128, 49, 49]         --
│    │    └─Conv2d: 3-7                  [32, 256, 49, 49]         295,168
│    │    └─ReLU: 3-8                    [32, 256, 49, 49]         --
│    │    └─Conv2d: 3-9                  [32, 256, 49, 49]         590,080
│    │    └─ReLU: 3-10                   [32, 256, 49, 49]         --
│    │    └─MaxPool2d: 3-11              [32, 256, 24, 24]         --
│    │    └─Conv2d: 3-12                 [32, 512, 24, 24]         1,180,160
│    │    └─ReLU: 3-13                   [32, 512, 24, 24]         --
│    │    └─Conv2d: 3-14                 [32, 512, 24, 24]         2,359,808
│    │    └─ReLU: 3-15                   [32, 512, 24, 24]         --
│    │    └─MaxPool2d: 3-16              [32, 512, 12, 12]         --
│    │    └─Conv2d: 3-17                 [32, 512, 12, 12]         2,359,808
│    │    └─ReLU: 3-18                   [32, 512, 12, 12]         --
│    │    └─Conv2d: 3-19                 [32, 512, 12, 12]         2,359,808
│    │    └─ReLU: 3-20                   [32, 512, 12, 12]         --
│    │    └─MaxPool2d: 3-21              [32, 512, 6, 6]           --
│    └─Sequential: 2-5                   [32, 10]                  --
│    │    └─Linear: 3-22                 [32, 10]                  5,130
==========================================================================================
Total params: 9,225,610
Trainable params: 9,225,610
Non-trainable params: 0
Total mult-adds (G): 179.91
==========================================================================================
Input size (MB): 14.75
Forward/backward pass size (MB): 1447.56
Params size (MB): 36.90
Estimated Total Size (MB): 1499.22
…
