…
ImageClassifier                          --                        --
├─ModuleDict: 1-1                        --                        --
│    └─Accuracy: 2-1                     --                        --
├─ModuleDict: 1-2                        --                        --
│    └─Accuracy: 2-2                     --                        --
├─ModuleDict: 1-3                        --                        --
│    └─Accuracy: 2-3                     --                        --
├─DefaultAdapter: 1-4                    --                        --
│    └─Sequential: 2-4                   [1, 512, 6, 6]            --
│    │    └─Conv2d: 3-1                  [1, 64, 196, 196]         1,792
│    │    └─ReLU: 3-2                    [1, 64, 196, 196]         --
│    │    └─MaxPool2d: 3-3               [1, 64, 98, 98]           --
│    │    └─Conv2d: 3-4                  [1, 128, 98, 98]          73,856
│    │    └─ReLU: 3-5                    [1, 128, 98, 98]          --
│    │    └─MaxPool2d: 3-6               [1, 128, 49, 49]          --
│    │    └─Conv2d: 3-7                  [1, 256, 49, 49]          295,168
│    │    └─ReLU: 3-8                    [1, 256, 49, 49]          --
│    │    └─Conv2d: 3-9                  [1, 256, 49, 49]          590,080
│    │    └─ReLU: 3-10                   [1, 256, 49, 49]          --
│    │    └─MaxPool2d: 3-11              [1, 256, 24, 24]          --
│    │    └─Conv2d: 3-12                 [1, 512, 24, 24]          1,180,160
│    │    └─ReLU: 3-13                   [1, 512, 24, 24]          --
│    │    └─Conv2d: 3-14                 [1, 512, 24, 24]          2,359,808
│    │    └─ReLU: 3-15                   [1, 512, 24, 24]          --
│    │    └─MaxPool2d: 3-16              [1, 512, 12, 12]          --
│    │    └─Conv2d: 3-17                 [1, 512, 12, 12]          2,359,808
│    │    └─ReLU: 3-18                   [1, 512, 12, 12]          --
│    │    └─Conv2d: 3-19                 [1, 512, 12, 12]          2,359,808
│    │    └─ReLU: 3-20                   [1, 512, 12, 12]          --
│    │    └─MaxPool2d: 3-21              [1, 512, 6, 6]            --
│    └─Sequential: 2-5                   [1, 10]                   --
│    │    └─Linear: 3-22                 [1, 10]                   5,130
==========================================================================================
Total params: 9,225,610
Trainable params: 9,225,610
Non-trainable params: 0
Total mult-adds (G): 5.62
==========================================================================================
Input size (MB): 0.46
Forward/backward pass size (MB): 45.24
Params size (MB): 36.90
Estimated Total Size (MB): 82.60
…
