…
├─ModuleDict: 1-1                                  --                        --
│    └─Accuracy: 2-1                               --                        --
├─ModuleDict: 1-2                                  --                        --
│    └─Accuracy: 2-2                               --                        --
├─ModuleDict: 1-3                                  --                        --
│    └─Accuracy: 2-3                               --                        --
├─DefaultAdapter: 1-4                              --                        --
│    └─ResNet: 2-4                                 [1, 512]                  --
│    │    └─Conv2d: 3-1                            [1, 64, 98, 98]           9,408
│    │    └─BatchNorm2d: 3-2                       [1, 64, 98, 98]           128
│    │    └─ReLU: 3-3                              [1, 64, 98, 98]           --
│    │    └─MaxPool2d: 3-4                         [1, 64, 49, 49]           --
│    │    └─Sequential: 3-5                        [1, 64, 49, 49]           147,968
│    │    └─Sequential: 3-6                        [1, 128, 25, 25]          525,568
│    │    └─Sequential: 3-7                        [1, 256, 13, 13]          2,099,712
│    │    └─Sequential: 3-8                        [1, 512, 7, 7]            8,393,728
│    │    └─AdaptiveAvgPool2d: 3-9                 [1, 512, 1, 1]            --
│    └─Sequential: 2-5                             [1, 10]                   --
│    │    └─Linear: 3-10                           [1, 10]                   5,130
====================================================================================================
Total params: 11,181,642
Trainable params: 11,181,642
Non-trainable params: 0
Total mult-adds (G): 1.54
====================================================================================================
Input size (MB): 0.46
Forward/backward pass size (MB): 31.54
Params size (MB): 44.73
Estimated Total Size (MB): 76.72
…
