…
2021-12-20 13:57:03.835909: I tensorflow/core/platform/profile_utils/cpu_utils.cc:94] CPU Frequency: 2995160000 Hz
2021-12-20 13:57:03.839381: I tensorflow/compiler/xla/service/service.cc:168] XLA service 0x55f65e4ff980 executing computations on platform Host. Devices:
2021-12-20 13:57:03.839433: I tensorflow/compiler/xla/service/service.cc:175]   StreamExecutor device (0): Host, Default Version
Model: "sequential"
_________________________________________________________________
Layer (type)                 Output Shape              Param #
=================================================================
conv2d (Conv2D)              (None, 28, 28, 32)        320
_________________________________________________________________
max_pooling2d (MaxPooling2D) (None, 14, 14, 32)        0
_________________________________________________________________
flatten (Flatten)            (None, 6272)              0
_________________________________________________________________
dense (Dense)                (None, 128)               802944
_________________________________________________________________
dropout (Dropout)            (None, 128)               0
_________________________________________________________________
dense_1 (Dense)              (None, 10)                1290
_________________________________________________________________
softmax (Softmax)            (None, 10)                0
=================================================================
Total params: 804,554
Trainable params: 804,554
Non-trainable params: 0
_________________________________________________________________
INFO:root:Starting prediction from selected layer...
INFO:root:Done.
INFO:root:Resulting accuracy is: 0.9498197115384616

real    0m10.143s
user    0m16.602s
sys     0m10.292s
